atari/models/epoch=66-step=7035.ckpt (torch, 162357 bytes, 15 tensors)

encoder.encoder.0.weight f4 [32, 2, 3, 3]
0.18546596 0.12699278 0.21025984 -0.16206172 0.1887397 -0.08411247 -0.0873487 0.059527494
0.14126465 0.018759362 0.061366525 -0.018202584 -0.22438033 -0.16019791 0.06507452 -0.14796358
0.14199975 -0.20345081 -0.16345957 -0.20524132 0.053411737 -0.041024327 -0.07379171 -0.15670791
0.1518089 -0.084886074 -0.012142353 0.07130127 -0.21531948 -0.23235625 0.10277121 -0.18188652
-0.038836107 0.054581273 -0.13984208 -0.08662592 0.1898765 0.25762898 -0.17386384 0.25101072
-0.11679832 0.07558731 -0.017466974 -0.08784988 -0.08952898 -0.1696329 -0.1510491 0.15385586
0.0069096424 0.2057579 0.13876781 0.19165625 -0.17842126 -0.1451379 -0.08580421 0.18968219
0.28314826 -0.090645224 -0.1630322 -0.058912683 -0.12910214 0.19748466 -0.035336748 0.23779209
-0.07020721 0.21014026 -0.077006586 -0.23720662 -0.12659642 0.20159443 -0.009960253 -0.054360256
0.26891726 0.12055368 0.06988248 0.19526967 0.13604124 0.09812248 0.011419003 0.16046152
0.21977462 0.19550838 -0.26639363 -0.2526198 -0.08426149 0.1952745 -0.20251778 0.0054292977
-0.12179298 -0.28237376 -0.017137643 -0.23719113 0.059592005 0.25323045 -0.15475151 -0.05990505
0.34445348 0.24601682 0.015119078 -0.23000641 -0.16420165 -0.10270654 0.20026101 -0.16165341
0.093130276 0.31994876 0.19666366 0.054596834 -0.22037718 0.071067296 -0.13808793 0.11434451
0.001703339 0.124755666 0.24031918 -0.09465007 -0.035609137 -0.09563634 0.08773622 0.013331409
0.16420887 0.16949664 -0.08278359 -0.036666043 0.059442285 -0.021070438 0.10234634 0.10125508
0.23142849 -0.27452785 -0.100600004 -0.09424649 -0.05237973 -0.1762936 -0.23984984 0.25436938
0.186688 0.15439126 0.049096342 -0.02436689 0.0035031007 0.0114435535 0.20445706 -0.11857139
0.052224226 0.20535465 0.03443133 0.21271664 0.1832361 0.16464804 -0.04284617 -0.2265464
-0.302682 0.23135622 0.18877247 -0.02090895 -0.15242223 -0.03390073 -0.08808329 -0.10002411
-0.27439836 0.1171239 -0.1655222 -0.109955825 -0.011323709 -0.18236963 0.24211688 -0.16464888
0.1342649 0.30395874 0.0246556 -0.17721452 -0.052038334 -0.031469174 0.052682664 0.2340162
0.1295822 0.17803507 0.2266224 0.22373015 0.11363192 0.1521678 0.11731218 -0.13359882
-0.25011313 -0.0064473916 0.23635729 -0.23554513 0.1877968 0.045014795 0.04055198 -0.1493722
0.12220471 0.07187792 -0.24465103 0.06824321 0.08462114 0.10790087 -0.27516302 -0.25294873
0.19840848 -0.11692993 -0.0056781815 0.034945577 -0.030186089 -0.1169831 0.13366888 0.19062787
0.15307103 -0.046527814 0.20633934 0.07508288 0.119574204 0.21557054 0.09545802 -0.25067097
0.03924768 -0.16737889 -0.10906803 0.04614936 0.2666544 0.17865331 0.037009213 0.28817645
0.3085732 -0.16462167 0.009723734 -0.08171802 -0.112434976 0.19028042 -0.098518334 0.23122069
0.17955689 -0.16891885 -0.04515914 -0.1401445 -0.15652485 0.0503921 0.009735374 0.20165633
0.1883121 0.13112362 -0.083595194 -0.22937752 -0.15518239 0.2299739 0.29226547 0.15979974
0.06477519 0.11816656 0.11904653 -0.019588348 0.41386902 -0.2968259 -0.22008891 -0.022065878
00000000: caea 3d3e 650a 023e 5b4e 573e 82f3 25be
00000010: fb44 413e 2943 acbd e0e3 b2bd 1ad3 733d
00000020: aea7 103e 3cad 993c 775b 7b3d 961d 95bc
00000030: f5c3 65be ec0a 24be ca45 853d c483 17be
00000040: 6268 113e 6955 50be f261 27be c82a 52be
00000050: 44c6 5a3d 2009 28bd 1c20 97bd 0a78 20be
00000060: cb73 1b3e c0d8 adbd b8f0 46bc 6606 923d
00000070: b67c 5cbe ccee 6dbe b679 d23d 7640 3abe
00000080: 9c12 1fbd 9d90 5f3d c332 0fbe ee68 b1bd
00000090: fc6e 423e f2e7 833e 5d09 32be 7a84 803e
000000a0: f533 efbd 85cd 9a3d e616 8fbc a3ea b3bd
000000b0: f85a b7bd 3fb4 2dbe 9eac 1abe 648c 1d3e
000000c0: 486a e23b 33b2 523e 2619 0e3e 8941 443e
000000d0: 10b4 36be 089f 14be 1eba afbd 0c3c 423e
000000e0: cff8 903e 34a4 b9bd eaf1 26be 6d4e 71bd
000000f0: 5a33 04be 6b39 4a3e 44bd 10bd c57f 733e
00000100: ccc8 8fbd 022f 573e a1b5 9dbd 4be6 72be
00000110: 7ea2 01be c56e 4e3e 5430 23bc dca8 5ebd
00000120: 86af 893e d9e4 f63d 8c1e 8f3d c6f4 473e
00000130: 654e 0b3e 70f4 c83d c516 3b3c 0650 243e
00000140: 990c 613e 5933 483e bf64 88be 6257 81be
00000150: 4a91 acbd 0af6 473e d260 4fbe 40e8 b13b
00000160: 996e f9bd 4b93 90be 3e64 8cbc 3be2 72be
00000170: bf16 743d 6ca7 813e 2e77 1ebe ff5e 75bd
00000180: 355c b03e d5eb 7b3e 02b6 773c cd86 6bbe
00000190: 7a24 28be ce57 d2bd 3911 4d3e 7988 25be
000001a0: 16bb be3d 53d0 a33e 3362 493e eea0 5f3d
000001b0: 8eaa 61be bb8b 913d ec66 0dbe 742d ea3d
000001c0: 9342 df3a e67f ff3d 3b16 763e e5d7 c1bd
000001d0: e3da 11bd fcdc c3bd 0caf b33d fb6b 5a3c
000001e0: 5f26 283e 8790 2d3e 718a a9bd 222f 16bd
000001f0: c179 733d e99b acbc f59a d13d d35e cf3d
00000200: 97fb 6c3e ea8e 8cbe 6007 cebd 4e04 c1bd
00000210: 218c 56bd 4f86 34be 329b 75be b43c 823e
00000220: 242b 3f3e be18 1e3e 3f19 493d 129d c7bc
00000230: 4794 653b be7d 3b3c 315d 513e 8fd5 f2bd
00000240: 12e9 553d 7d48 523e de07 0d3d 64d2 593e
00000250: 3fa2 3b3e 7f99 283e 777f 2fbd c8fb 67be
00000260: 23f9 9abe a5e8 6c3e 924d 413e 3f49 abbc
00000270: 9314 1cbe 7edb 0abd 0365 b4bd 71d9 ccbd
00000280: f17d 8cbe a8de ef3d a77e 29be 8530 e1bd
00000290: 1487 39bc 1bbf 3abe 7ded 773e b799 28be
000002a0: bd7c 093e 7ba0 9b3e 8afa c93c b977 35be
000002b0: 2626 55bd d2e5 00bd c7c9 573d f1a1 6f3e
000002c0: 32b1 043e d34e 363e b40f 683e 8419 653e
000002d0: dab7 e83d e0d1 1b3e 5e41 f03d 21ce 08be
000002e0: d40e 80be a444 d3bb a507 723e be32 71be
000002f0: ce4d 403e 6f61 383d d519 263d 07f5 18be
00000300: 7746 fa3d bb34 933d cd85 7abe 19c3 8b3d
00000310: d94d ad3d 22fb dc3d 2be2 8cbe 7f82 81be
00000320: 982b 4b3e f678 efbd 0a10 babb 1823 0f3d
00000330: d148 f7bc d694 efbd 7fe0 083e f433 433e
00000340: a7be 1c3e f393 3ebd 9f4a 533e 0ec5 993d
00000350: 52e3 f43d 86be 5c3e 7f7f c33d f257 80be
00000360: 2dc2 203d 5f65 2bbe 0f5f dfbd 1c07 3d3d
00000370: ed86 883e e5f0 363e f996 173d dd8b 933e
00000380: 4efd 9d3e 9592 28be 4c50 1f3c c75b a7bd
00000390: 4f44 e6bd dfd8 423e fbc3 c9bd 1ec5 6c3e
000003a0: c3dd 373e 10f9 2cbe caf8 38bd 0a82 0fbe
000003b0: 0d48 20be f267 4e3d 1e81 1f3c ff7e 4e3e
000003c0: e3d4 403e 4545 063e f533 abbd f1e1 6abe
000003d0: 22e8 1ebe 477e 6b3e d2a3 953e 8ba2 233e
000003e0: dba8 843d 4f01 f23d abce f33d be77 a0bc
000003f0: a4e6 d33e 90f9 97be fd5e 61be 80c3 b4bc

encoder.encoder.0.bias f4 [32]
-0.0965804 -0.0289109 -0.10661814 -0.22057687 -0.30519298 0.17919311 -0.21475406 0.14308071
-0.024467792 0.023107871 -0.23023899 -0.31249315 -0.15708674 0.08813002 0.21364209 0.17854384
0.30570182 0.17708592 -0.017051043 0.17094386 0.07344172 -0.08019588 -0.30369243 0.1166378
0.023870725 -0.04290626 -0.18824854 -0.017414814 -0.124779694 -0.11577822 0.1487436 -0.07434806
00000000: f2cb c5bd 8dd6 ecbc 9d5a dabd e7de 61be
00000010: 4142 9cbe 667e 373e 7de8 5bbe c083 123e
00000020: ae70 c8bc b84c bd3c c5c3 6bbe 1aff 9fbe
00000030: 59db 20be 837d b43d fec4 5a3e 32d4 363e
00000040: f384 9c3e 0356 353e a1ae 8bbc e80b 2f3e
00000050: 9d68 963d bd3d a4bd 937d 9bbe cddf ee3d
00000060: 8a8c c33c 79be 2fbd 3ac4 40be 83a9 8ebc
00000070: 7f8c ffbd 221d edbd 3e50 183e cc43 98bd

encoder.encoder.2.weight f4 [32, 32, 3, 3]
-0.028097935 -0.056700904 -0.05215592 -0.020268898 -0.021869259 -0.020898368 -0.009323504 -0.00611311
0.0068276543 0.026184361 0.021113832 0.034513887 -0.023702305 0.025660131 -0.0019149706 0.047814514
0.023728546 0.031154145 -0.018072039 -0.014851029 0.012498891 -0.06282682 -0.049427282 -0.049055647
-0.035781607 0.0058752587 -0.07305376 -0.045011155 0.0024161737 -0.048169423 -0.058049437 -0.08335004
0.009929268 0.0073624644 -0.037229877 0.0086781625 -0.06379474 -0.080916815 -0.05962512 -0.0634289
-0.06204733 0.016455954 -0.08529402 -0.024168715 0.01680439 -0.04229441 -0.0015746839 -0.050814122
-0.040755488 -0.070294924 0.006672807 -0.08343986 -0.021631654 -0.01681375 -0.07300269 -0.04268859
-0.07813247 -0.088618495 -0.031547543 -0.008223144 -0.05981174 -0.07634372 -0.068039745 -0.025437562
-0.027592907 -0.07353027 -0.051732276 -0.05891996 -0.009330612 0.011920947 -0.027654447 -0.014253273
-0.036057476 -0.0032157376 -0.05852407 -0.06041374 -0.027462922 -0.030153386 -0.0060481094 -0.05662124
-0.058381457 -0.061796796 -0.040251505 -0.08029039 -0.03990932 0.013925007 -0.06354082 -0.07617253
-0.0085665295 -0.03071316 -0.0077431654 -0.070997074 -0.0023685144 0.0012053748 0.007197507 0.024974266
-0.018714838 -0.038810097 -0.031533536 0.027128074 -0.027474323 -0.0012908505 -0.0063289376 -0.0555283
-0.054258097 -0.050793257 -0.06702739 -0.045155443 0.0031215255 -0.0022595 -0.018927658 0.0024567714
-0.079625465 -0.010415004 -0.027804028 -0.021649279 -0.07641686 -0.009860427 -0.05317539 -0.074324936
-0.037274346 -0.069075786 -0.014977463 0.0039691096 -0.043732088 -0.011497572 -0.051689774 -0.0014957152
0.0030612238 -0.031504076 -0.0048346887 -0.023190105 0.056369785 0.0003265664 0.010208886 0.023837205
0.052562293 0.020970171 -0.0048513003 -0.056888588 0.05734044 0.020773295 -0.056488346 0.047753494
0.05596113 0.04198798 -0.022855718 -0.048080977 0.021000952 0.053909976 -0.055201817 -0.06501
-0.06962278 -0.04130313 0.0007004738 -0.008041717 -0.018296145 -0.034851663 -0.03281405 0.043138575
-0.015844706 0.020962674 -0.082928896 -0.024219912 -0.038488477 -0.02661986 0.020513711 -0.041907784
-0.038895786 -0.072182365 0.009376704 -0.05915286 -0.085635245 0.02088241 -0.043864064 -0.0015436634
-0.01907279 -0.008734469 -0.031325717 0.022510145 0.05807771 0.021746084 0.0414608 0.048085812
0.008176613 0.026492413 -0.00059208646 -0.044179767 0.04455794 -0.07121042 -0.08674707 -0.010781807
-0.08348707 -0.038504563 -0.027100572 -0.017339114 -0.0024123816 -0.07090479 -0.008461602 -0.05340379
-0.06407691 -0.0313671 -0.003045923 -0.08891291 -0.026792275 -0.06415279 -0.04803068 -0.03575313
-0.04253384 0.0018565953 -0.031875186 -0.029109605 -0.02330114 -0.060026344 -0.071116 -0.019394724
-0.037575733 -0.082163535 0.017262131 0.0062224967 -0.0561811 -0.029868552 0.0071696714 -0.004645213
-0.08525004 -0.0802025 0.023495382 -0.042561453 0.0055966815 -0.030007375 -0.056659814 0.026831245
0.0075795637 -0.07993037 0.014554667 -0.024785925 -0.04915412 -0.014297321 0.009168614 0.0012603365
-0.030345848 0.007614101 -0.021715133 0.025766505 -0.050837982 -0.004524857 -0.04575681 -0.08883767
-0.016107162 0.014989396 -0.065387204 -0.0040923585 0.015499813 -0.07485582 -0.06575914 -0.008215687
00000000: a42d e6bc 353f 68bd 72a1 55bd f60a a6bc
00000010: 2927 b3bc 0e33 abbc 9cc1 18bc 7c50 c8bb
00000020: 84ba df3b 9680 d63c eaf6 ac3c 6f5e 0d3d
00000030: 562b c2bc 3235 d23c c0ff faba 27d9 433d
00000040: 5e62 c23c fa36 ff3c d00b 94bc bb51 73bc
00000050: 26c8 4c3c 59ab 80bd 4374 4abd 93ee 48bd
00000060: bc8f 12bd 3e85 c03b 369d 95bd 9e5d 38bd
00000070: ab58 1e3b 4d4d 45bd 3fc5 6dbd 6db3 aabd
00000080: 5eae 223c d440 f13b 5b7e 18bd da2e 0e3c
00000090: d1a6 82bd b7b7 a5bd 7839 74bd 03e7 81bd
000000a0: 5725 7ebd a3ce 863c a2ae aebd 78fd c5bc
000000b0: 5ca9 893c e73c 2dbd a065 ceba 7822 50bd
000000c0: 3aef 26bd c9f6 8fbd 90a7 da3b 84e2 aabd
000000d0: de34 b1bc fdbc 89bc 6f82 95bd 3bda 2ebd
000000e0: eb03 a0bd 9d7d b5bd ff37 01bd 5eba 06bc
000000f0: 28fd 74bd 195a 9cbd 6c58 8bbd 6f62 d0bc
00000100: 850a e2bc 0a97 96bd 39e5 53bd 0e56 71bd
00000110: 6cdf 18bc 1350 433c 948b e2bc 8f86 69bc
00000120: 01b1 13bd 20bf 52bb efb6 6fbd 6674 77bd
00000130: ecf9 e0bc 3c04 f7bc 382f c6bb aceb 67bd
00000140: 6521 6fbd a31e 7dbd c3de 24bd 4a6f a4bd
00000150: f577 23bd b625 643c b021 82bd 5800 9cbd
00000160: a15a 0cbc 2a9a fbbc 61ba fdbb ea66 91bd
00000170: 1439 1bbb abfd 9d3a 11d9 eb3b d596 cc3c
00000180: dc4f 99bc 56f7 1ebd 4f29 01bd b23b de3c
00000190: d511 e1bc c131 a9ba fa62 cfbb a571 63bd
000001a0: bd3d 5ebd 970c 50bd a845 89bd eaf4 38bd
000001b0: 8292 4c3b 1f14 14bb 2d0e 9bbc c901 213b
000001c0: ad12 a3bd b1a3 2abc 46c5 e3bc d459 b1bc
000001d0: 7180 9cbd a18d 21bc 70ce 59bd ac37 98bd
000001e0: fcac 18bd 9b77 8dbd 0864 75bc 4e0f 823b
000001f0: 6b20 33bd 5060 3cbc a8b8 53bd e00b c4ba
00000200: d09e 483b 6b0a 01bd 4f6c 9ebb 2df9 bdbc
00000210: 01e4 663d 0037 ab39 2c43 273c 3e46 c33c
00000220: 8f4b 573d a3c9 ab3c a8f7 9ebb 0204 69bd
00000230: cfdd 6a3d c22c aa3c 5360 67bd 2b99 433d
00000240: 7f37 653d 97fb 2b3d ea3b bbbc 8ff0 44bd
00000250: 300a ac3c b5d0 5c3d 4d1b 62bd f623 85bd
00000260: 6396 8ebd 792d 29bd 00a0 373a 68c1 03bc
00000270: cce1 95bc 9ec0 0ebd 0668 06bd 13b2 303d
00000280: c2cc 81bc eab9 ab3c a0d6 a9bd d668 c6bc
00000290: 18a6 1dbd e511 dabc 5f0c a83c 7fa7 2bbd
000002a0: 3051 1fbd 59d4 93bd bfa0 193c 454a 72bd
000002b0: 8861 afbd 9711 ab3c ceaa 33bd c054 caba
000002c0: 8a3e 9cbc 051b 0fbc 654f 00bd 3267 b83c
000002d0: e5e2 6d3d d824 b23c cdd2 293d a1f5 443d
000002e0: 33f7 053c 9e06 d93c 4036 1bba d8f5 34bd
000002f0: 6382 363d c5d6 91bd 73a8 b1bd 2da6 30bc
00000300: 45fb aabd f6b6 1dbd 0502 debc c20a 8ebc
00000310: 0c19 1ebb 8836 91bd 88a2 0abc efbd 5abd
00000320: c13a 83bd ca7a 00bd 1c9e 47bb f917 b6bd
00000330: 797b dbbc 8a62 83bd d1bb 44bd e071 12bd
00000340: f737 2ebd 0059 f33a 8e8f 02bd 4477 eebc
00000350: 08e2 bebc 2fde 75bd 44a5 91bd afe1 9ebc
00000360: 03e9 19bd 5b45 a8bd 5069 8d3c 16e6 cb3b
00000370: 271e 66bd e5ae f4bc 90ef ea3b df36 98bb
00000380: 9397 aebd 3541 a4bd 6379 c03c eb54 2ebd
00000390: 5e64 b73b 07d2 f5bc 1f14 68bd 33cd db3c
000003a0: fd5d f83b 89b2 a3bd b376 6e3c da0b cbbc
000003b0: d555 49bd 503f 6abc f437 163c e031 a53a
000003c0: db97 f8bc b57f f93b efe3 b1bc 4714 d33c
000003d0: 7d3b 50bd 4045 94bb 7e6b 3bbd 86f0 b5bd
000003e0: 2bf3 83bc 1596 753c bae9 85bd 3119 86bb
000003f0: edf2 7d3c 024e 99bd baac 86bd 179b 06bc

encoder.encoder.2.bias f4 [32]
0.024713643 -0.03136393 0.030437926 0.009210118 -0.005746273 0.010817835 0.034439646 -0.0011291334
0.021672118 -0.029909298 -0.0049821697 0.02884866 0.04778428 -0.0013200978 -0.005835815 -0.027336907
0.020780763 0.007716205 0.009348349 0.012514565 0.06256299 -0.074544676 -0.045455728 -0.048443154
0.01651773 -0.032114062 0.04620386 -0.020484412 -0.040468358 -0.003994408 0.08602617 0.05713603
00000000: 4474 ca3c 7777 00bd f558 f93c 09e6 163c
00000010: 3b4b bcbb 4a3d 313c 9610 0d3d 6eff 93ba
00000020: ba89 b13c 5804 f5bc 7841 a3bb 0654 ec3c
00000030: 73b9 433d 2207 adba 5d3a bfbb a6f1 dfbc
00000040: 6b3c aa3c 38d8 fc3b d129 193c e409 4d3c
00000050: 0621 803d e1aa 98bd c92f 3abd 546c 46bd
00000060: 3150 873c 098a 03bd 4240 3d3d edce a7bc
00000070: 26c2 25bd 86e3 82bb 7d2e b03d 7807 6a3d

encoder.encoder.4.weight f4 [32, 32, 3, 3]
-0.01203407 -0.03171348 -0.030475825 -0.025672346 -0.053916413 -0.021568235 0.044263545 0.026261222
-0.0060171597 0.04212409 -0.012586618 0.038558792 -0.021482263 0.051818114 0.05364583 0.015572514
-0.037776206 -0.030685617 -0.055612456 -0.04128167 -0.10753852 0.020698229 -0.055548314 0.020792745
0.024801172 0.063325584 0.05704828 -0.0024390519 -0.053309094 -0.04140228 0.08555234 0.069773495
0.018204901 -0.030396247 0.12168371 0.04315019 -0.023872655 -0.004743103 0.024764333 -0.028818715
-0.048582386 -0.023663502 0.01826198 -0.007822784 0.030988347 0.036102615 0.08927966 0.07983999
-0.095631495 -0.06657997 0.013870742 0.0017226926 0.030794695 0.02335765 -0.08413743 0.022042017
-0.063063756 -0.122878 0.014430058 -0.025122194 -0.02192092 0.011046805 -0.0041027907 0.05831903
0.009227451 0.031402927 -0.0005064495 0.0011520733 -0.0013251118 -0.007928658 0.0046013016 -0.024690788
-0.010513419 0.0074746935 0.03514121 0.048155323 -0.025249615 0.007846216 0.10063439 -0.033556536
0.015160116 -0.023067513 0.018859075 0.005639372 -0.024699494 -0.12247781 -0.033827674 0.06506773
0.02892571 -0.017800385 -0.0018070898 0.01638603 0.0069466247 -0.03539229 -0.06756768 0.036544207
-0.028280132 -0.06421557 -0.026200436 0.045541123 0.035657134 -0.040944483 0.03257425 0.03104256
-0.024994966 0.028743584 -0.015622095 0.051908545 -0.03421381 -0.04626517 0.03251081 -0.018027958
0.02811842 0.04010399 -0.024665315 0.041730057 0.017801555 0.028407427 0.048110005 0.034524772
0.03546383 0.047422092 -0.014333941 -0.018656448 0.032788005 -0.02971547 -0.028400622 -0.08289148
0.052118834 0.056229193 0.011026914 0.03488138 0.15448107 0.019062303 -0.070190735 -0.09612814
0.007502984 -0.16996165 -0.06624487 0.035497844 0.03493122 0.029529018 0.051164612 0.04521824
0.16394427 -0.040231626 0.07715481 0.034290984 -0.037741374 0.123592846 0.03174836 -0.03305853
0.036918115 -0.020071505 -0.1318625 0.0019847038 -0.028653976 0.020530598 0.07477532 0.07803071
-0.016080523 0.04299722 -0.03167677 0.03321213 -0.03430252 -0.05996219 -0.03029089 0.055932287
-0.013378277 -0.049764507 0.058357075 0.037298072 -0.009200349 0.04319633 0.013027134 0.03759266
0.01668529 -0.0181677 -0.02674817 -0.020946976 0.053726014 -0.07573516 0.07274393 -0.05713163
-0.10555619 0.047539268 -0.03932754 0.021990145 -0.017379269 -0.05558406 0.021162067 0.04034296
-0.010068726 -0.03791438 -0.0015373006 -0.0047243237 -0.020911757 -0.007493142 -0.019070268 0.04019912
-0.06332838 -0.03896632 -0.10125327 -0.02529 0.010574667 -0.09019115 0.01717421 0.026031632
-0.015358419 -0.03402992 -0.07065579 -0.0971964 0.03469167 -0.013929176 -0.008791309 0.02438306
-0.06167363 -0.023720244 -0.0020279451 -0.050835907 0.052260786 -0.073587276 -0.1555416 -0.044241764
-0.042509906 -0.035994306 -0.020928133 -0.047759965 -0.03922654 0.006330076 -0.06251685 0.012003387
-0.042873334 -0.0036186287 -0.069318585 -0.35003936 -0.008738416 0.05257662 0.05510908 0.02236551
-0.017191162 -0.8863738 -0.2615712 0.0131941475 0.03567593 -0.045455735 -0.052193202 0.058319416
0.005100917 0.005515117 0.029918093 -0.0060924813 0.0577307 0.0233394 -0.03194947 -0.050722547
00000000: 8c2a 45bc fee5 01bd 70a8 f9bc d04e d2bc
00000010: 75d7 5cbd deaf b0bc b14d 353d c621 d73c
00000020: 982b c5bb 4f8a 2c3d 1a38 4ebc d3ef 1d3d
00000030: 92fb afbc 3b3f 543d bbbb 5b3d dc23 7f3c
00000040: 39bb 1abd 6760 fbbc e3c9 63bd f816 29bd
00000050: 283d dcbd 558f a93c a186 63bd 8c55 aa3c
00000060: d42b cb3c d8b0 813d 75ab 693d 80d8 1fbb
00000070: a35a 5abd 7095 29bd 1136 af3d 68e5 8e3d
00000080: 7222 953c 8d01 f9bc 4f35 f93d 41be 303d
00000090: 9690 c3bc 086c 9bbb 92de ca3c 3a15 ecbc
000000a0: 53fe 46bd f6d9 c1bc 269a 953c 222b 00bc
000000b0: 46db fd3c 56e0 133d 41d8 b63d 2683 a33d
000000c0: 72da c3bd 145b 88bd 1c42 633c f9cb e13a
000000d0: 2845 fc3c 8b58 bf3c 3f50 acbd 7691 b43c
000000e0: 9227 81bd 76a7 fbbd 0d6c 6c3c 0fcd cdbc
000000f0: 8093 b3bc a9fd 343c b470 86bb efdf 6e3d
00000100: bc2e 173c 5ba0 003d 40c3 04ba 2a01 973a
00000110: 60af adba 34e7 01bc 84c6 963b 5644 cabc
00000120: 7a40 2cbc 46ee f43b 3bf0 0f3d 843e 453d
00000130: 48d8 cebc 6a8d 003c 6719 ce3d 9472 09bd
00000140: 2362 783c 15f8 bcbc 597e 9a3c 7bca b83b
00000150: 9856 cabc a5d5 fabd e38e 0abd 3b42 853d
00000160: 9cf5 ec3c 1dd2 91bc dfdb ecba ff3b 863c
00000170: 83a0 e33b 82f7 10bd ec60 8abd 61af 153d
00000180: bcab e7bc 7483 83bd 4ca2 d6bc 5489 3a3d
00000190: 370d 123d 67b5 27bd 946c 053d f74c fe3c
000001a0: 3ec2 ccbc aa77 eb3c d1f3 7fbc 0e9e 543d
000001b0: c823 0cbd 8c80 3dbd 0e2a 053d 5eaf 93bc
000001c0: 9a58 e63c 1544 243d ea0e cabc 23ed 2a3d
000001d0: 91d4 913c b1b6 e83c ff0e 453d d969 0d3d
000001e0: 8542 113d ab3d 423d e8d8 6abc 68d5 98bc
000001f0: b74c 063d db6d f3bc 6ca8 e8bc 02c3 a9bd
00000200: 8f7a 553d 9550 663d 3baa 343c c7df 0e3d
00000210: 4930 1e3e 8c28 9c3c 29c0 8fbd d5de c4bd
00000220: 97db f53b 6d0a 2ebe 64ab 87bd 3066 113d
00000230: 0a14 0f3d d7e6 f13c fc91 513d c336 393d
00000240: 02e1 273e ebc9 24bd 5703 9e3d b474 0c3d
00000250: b396 1abd 3f1e fd3d 910a 023d 6268 07bd
00000260: 7337 173d ff6c a4bc f706 07be ce11 023b
00000270: bebb eabc c92f a83c ce23 993d 91ce 9f3d
00000280: 4dbb 83bc da1d 303d 80bf 01bd 7109 083d
00000290: cd80 0cbd ea9a 75bd 9a24 f8bc 4119 653d
000002a0: 9030 5bbc ded5 4bbd d407 6f3d ddc5 183d
000002b0: 10bd 16bc a3ee 303d c36f 553c c3fa 193d
000002c0: 97af 883c 6ed4 94bc fa1e dbbc fe98 abbc
000002d0: cf0f 5c3d 091b 9bbd c5fa 943d db02 6abd
000002e0: d82d d8bd 89b8 423d ea15 21bd ad24 b43c
000002f0: f85e 8ebc 1cac 63bd 125c ad3c a93e 253d
00000300: 4cf7 24bc 1c4c 1bbd 407f c9ba 80ce 9abb
00000310: 224f abbc 0889 f5bb 4039 9cbc d5a7 243d
00000320: 4fb2 81bd 269b 1fbd e05d cfbd f92c cfbc
00000330: 5e41 2d3c 23b6 b8bd eeb0 8c3c 4a40 d53c
00000340: e1a1 7bbc f562 0bbd fcb3 90bd e80e c7bd
00000350: da18 0e3d 3337 64bc 6c09 10bc fcbe c73c
00000360: 7d9d 7cbd f550 c2bc 46e7 04bb 5039 50bd
00000370: 680f 563d edb4 96bd 4c46 1fbe da36 35bd
00000380: de1e 2ebd c46e 13bd 7a71 abbc f49f 43bd
00000390: 02ac 20bd 876c cf3b d608 80bd dba9 443c
000003a0: f39b 2fbd 8426 6dbb e7f6 8dbd 5c38 b3be
000003b0: 932b 0fbc 955a 573d 0fba 613d e037 b73c
000003c0: 7bd4 8cbc 65e9 62bf a9ec 85be 442c 583c
000003d0: ed20 123d cb2f 3abd 8ac8 55bd 57e0 6e3d
000003e0: 9825 a73b 28b8 b43b ca16 f53c 70a3 c7bb
000003f0: 0777 6c3d 4532 bf3c 73dd 02bd 72c2 4fbd

encoder.encoder.4.bias f4 [32]
0.07324984 -0.027731378 0.01988263 0.025985489 -0.030767424 0.02647224 0.0024910802 -0.029731132
0.0056640175 0.034433663 -0.07395198 0.04001752 0.010778786 0.04749041 0.0072069713 0.010081872
-0.06765699 -0.0702558 0.008210121 0.021519016 -0.02700007 -0.04155626 -0.009935287 0.090478495
0.011679837 0.053389445 -0.039236274 -0.029625932 0.039029457 0.011793272 0.0011901803 -0.07431349
00000000: 0304 963d ea2c e3bc e6e0 a23c 85df d43c
00000010: f70b fcbc 50dc d83c 6441 233b b48e f3bc
00000020: 3999 b93b 500a 0d3d 2374 97bd 69e9 233d
00000030: 8199 303c 4e85 423d 7528 ec3b 702e 253c
00000040: bf8f 8abd 46e2 8fbd be83 063c a648 b03c
00000050: 402f ddbc e636 2abd 9dc7 22bc ca4c b93d
00000060: c95c 3f3c e4ae 5a3d 37b6 20bd 15b2 f2bc
00000070: 5add 1f3d 9138 413c d3ff 9b3a ac31 98bd

encoder.encoder.6.weight f4 [1, 32, 3, 3]
-0.03576863 0.011188859 0.0587177 0.19014014 0.06370755 -0.085687466 -0.01512726 0.043800928
-0.024058694 0.052798565 0.300641 0.17481811 0.54986197 -0.2987848 -0.084072806 0.16684484
0.058493074 -0.13531929 0.023001218 0.034309786 0.012202408 0.016661078 0.04901916 -0.017465541
-0.024146788 0.04025444 0.0106229 -0.020538673 -0.020765675 0.12483404 -0.043628246 0.011167096
0.08251016 0.00939272 0.043280404 -0.010236721 -0.032240387 -0.021066874 0.013279427 -0.006085001
-0.045486465 0.040904988 0.05283424 -3.0569732e-05 -0.051896323 0.0008690579 0.055046733 0.031051619
-0.048732575 -0.012749928 -0.03256321 0.0021218956 0.008439282 -0.013759408 -0.01619903 -0.10388691
0.0009015846 -0.1661925 0.1292459 -0.20623034 0.009229092 0.33417502 0.13966575 -0.08169858
-0.03710075 0.055407293 -0.061051905 -0.043399516 0.16401939 0.06875814 0.042562738 -0.058843754
0.15174659 -0.022400137 0.06144829 0.06486526 0.07699941 -0.021655524 -0.07668239 0.05058056
0.03297959 0.086148836 0.020149263 0.114098065 -0.009227127 0.039648976 0.005613499 -0.06947123
-0.031087697 -0.01573275 0.048143 0.023445487 0.018800665 0.010860308 0.009716057 -0.02195861
-0.06137426 -0.064303264 -0.0148072 -0.01572758 -0.008371441 -0.038415782 -0.049365334 -0.024132526
0.029613558 0.038310375 0.0063483375 -0.038593814 -0.059354786 0.0855408 0.10749272 0.034400642
-0.0923505 -0.028045822 -0.042129535 0.046025176 -0.0735637 -0.00013155898 0.018517632 0.08743635
0.08465692 0.022798704 0.024970105 -0.014350169 -0.05534473 0.050089765 -0.00677732 0.07343177
0.05996124 -0.06624621 -0.05986177 0.10372593 0.0014919742 -0.058363646 0.014735128 -0.04724103
0.04476205 0.032103155 -0.06604762 0.012022507 0.14998832 0.01609339 -0.025121296 0.06446718
0.08305594 0.1389942 0.1356948 0.023348272 0.34442377 -0.33426008 0.06477831 -0.06428623
-0.038286455 -0.003696837 -0.014004875 -0.01930047 0.060195327 0.0042323004 0.0032409334 0.05385471
0.039559502 0.04383419 -0.027185403 -0.015157536 0.020143982 0.022208154 0.016853124 -0.02506317
0.015267173 0.028400365 0.013202917 -0.030924503 -0.07686311 -0.02290464 0.008759094 0.092598535
0.05305519 0.025093757 0.06811158 0.15077624 0.04402722 -0.032946866 -0.04154908 -0.05487064
-0.035034038 0.032078613 -0.004907177 -0.015680082 -0.032442313 0.07146684 0.011930942 0.080789775
-0.021186905 0.051242903 0.061552536 -0.07235801 -0.034791023 0.008791841 0.060741127 -0.023630975
-0.0206832 0.009587306 -0.021831594 -0.029436115 -0.02716494 0.021122053 -0.048579812 0.04833415
-0.04137174 0.029326735 0.12727046 0.06590106 0.26060095 -0.060862064 -0.04344138 0.11394819
0.016933434 0.01946244 0.008913705 0.029833233 -0.04636055 0.04549398 -0.032524467 -0.043901782
-0.031194577 -0.027665734 0.051007476 -0.0161714 -0.029769178 0.09443052 0.13735677 0.020450067
0.0068862746 -0.09057526 -0.0020442882 0.038897216 -0.0006433301 -0.0448358 0.08154663 0.078223854
0.05466717 -0.011128397 0.045979902 -0.030172413 -0.0095109735 0.03375585 -0.30929098 -0.026798788
0.02500503 -0.3308262 -0.42290273 -0.1381088 0.30668965 -0.17838065 0.13563795 0.10366197
00000000: 2182 12bd 7a51 373c f981 703d 19b4 423e
00000010: 1b79 823d e97c afbd 54d8 77bc 9a68 333d
00000020: bd16 c5bc 4f43 583d 9eed 993e 8503 333e
00000030: c1c3 0c3f 52fa 98be 5d2e acbd 60d9 2a3e
00000040: 6f96 6f3d 2491 0abe 0d6d bc3c 6b88 0c3d
00000050: 9cec 473c d07c 883c 51c8 483d e513 8fbc
00000060: 7ccf c5bc d7e1 243d ac0b 2e3c b840 a8bc
00000070: c71c aabc fda8 ff3d 88b3 32bd 32f6 363c
00000080: 16fb a83d ece3 193c cb46 313d ebb7 27bc
00000090: 7f0e 04bd 7094 acbc f491 593c b064 c7bb
000000a0: 0450 3abd fd8b 273d b768 583d 0038 00b8
000000b0: 3d91 54bd 7dd1 633a af78 613d f75f fe3c
000000c0: cf9b 47bd 13e5 50bc 0061 05bd 800f 0b3b
000000d0: ea44 0a3c 246f 61bc d4b3 84bc a9c2 d4bd
000000e0: 5158 6c3a 5e2e 2abe 0a59 043e 0c2e 53be
000000f0: 9e35 173c fd18 ab3e 8a04 0f3e 9651 a7bd
00000100: f5f6 17bd c2f2 623d 9011 7abd b1c3 31bd
00000110: b3f4 273e 11d1 8c3d 4456 2e3d 2606 71bd
00000120: 7563 1b3e 7e80 b7bc 34b1 7b3d 14d8 843d
00000130: deb1 9d3d ed66 b1bc a80b 9dbd 902d 4f3d
00000140: 9b15 073d cd6e b03d 1110 a53c 3fac e93d
00000150: 602d 17bc f766 223d 71f1 b73b ef46 8ebd
00000160: a0ab febc f8e1 80bc 9831 453d c010 c03c
00000170: da03 9a3c 6fef 313c 1930 1f3c 8be2 b3bc
00000180: 9363 7bbd 6eb1 83bd e699 72bc 20d7 80bc
00000190: 5e28 09bc de59 1dbd 4e33 4abd 93b1 c5bc
000001a0: 2298 f23c 57eb 1c3d b705 d03b 8c14 1ebd
000001b0: 011e 73bd 0430 af3d 2525 dc3d b0e7 0c3d
000001c0: 4222 bdbd 5ac0 e5bc 0590 2cbd e584 3c3d
000001d0: 91a8 96bd 18f3 09b9 4ab2 973c d411 b33d
000001e0: 9b60 ad3d 59c4 ba3c 1b8e cc3c f91c 6bbc
000001f0: 28b1 62bd ed2a 4d3d 4814 debb 6563 963d
00000200: eb99 753d 18ac 87bd 9e31 75bd 436e d43d
00000210: 598e c33a b80e 6fbd 9b6b 713c cf7f 41bd
00000220: 6958 373d 997e 033d f943 87bd 0dfa 443c
00000230: 8a96 193e 49d6 833c 2dcb cdbc 5e07 843d
00000240: 3c19 aa3d 7f54 0e3e 94f3 0a3e e044 bf3c
00000250: 5058 b03e 2324 abbe 7eaa 843d 80a8 83bd
00000260: 42d2 1cbd a246 72bb b474 65bc 051c 9ebc
00000270: 608f 763d 1caf 8a3b d765 543b c296 5c3d
00000280: 2509 223d 7b8b 333d ecb3 debc 5057 78bc
00000290: fe04 a53c e0ed b53c 900f 8a3c 4751 cdbc
000002a0: 2a23 7a3c e2a7 e83c 0c51 583c 6255 fdbc
000002b0: 686a 9dbd 83a2 bbbc 4e82 0f3c 4da4 bd3d
000002c0: 6650 593d 6c91 cd3c 167e 8b3d 1665 1a3e
000002d0: e355 343d 4bf3 06bd 5e2f 2abd 09c0 60bd
000002e0: da7f 0fbd dd64 033d 62cc a0bb 8473 80bc
000002f0: 3be2 04bd 355d 923d ff79 433c 1c75 a53d
00000300: 2990 adbc 14e4 513d 831e 7c3d 7030 94bd
00000310: 0881 0ebd a70b 103c b0cb 783d bf95 c1bc
00000320: d06f a9bc 1314 1d3c 2cd8 b2bc 0224 f1bc
00000330: 0289 debc 2808 ad3c a0fb 46bd 08fa 453d
00000340: 6a75 29bd 9f3e f03c 3053 023e 23f7 863d
00000350: 7d6d 853e 804a 79bd 97ef 31bd ab5d e93d
00000360: fcb7 8a3c b26f 9f3c ca0a 123c d364 f43c
00000370: 8fe4 3dbd e557 3a3d 6038 05bd 5bd2 33bd
00000380: c58b ffbc 40a3 e2bc 37ed 503d e279 84bc
00000390: 7ede f3bc ca64 c13d 41a7 0c3e e686 a73c
000003a0: 42a6 e13b 867f b9bd 77f9 05bb b052 1f3d
000003b0: 27a5 28ba bea5 37bd eb01 a73d d433 a03d
000003c0: afea 5f3d e153 36bc 6c55 3c3d 232c f7bc
000003d0: ead3 1bbc 9343 0a3d 635b 9ebe 2289 dbbc
000003e0: 59d7 cc3c 0d62 a9be b586 d8be 656c 0dbe
000003f0: 6d06 9d3e 6ba9 36be ade4 0a3e ba4c d43d

decoder.decoder.0.weight f4 [1, 32, 3, 3]
0.025836436 0.058112804 0.05208648 -0.03133303 -0.01291709 0.0054977615 -0.056501422 -0.073283456
-0.031936817 0.041863464 0.051102914 0.052398045 -0.02524029 -0.0066839727 -0.035530314 -0.08040552
-0.09226984 -0.09489689 0.03649312 0.016013106 0.010538086 -0.016404258 -0.045568153 -0.00037617784
-0.011610593 0.017838405 0.041747745 0.009638142 0.06256783 0.020753965 -0.049587417 -0.014818756
0.054729912 -0.07811047 -0.08740324 -0.0384389 0.024451781 0.049746834 -0.08565816 -0.014633571
-0.025996055 -0.029670294 0.052265707 -0.09648733 0.026144136 -0.01826333 -0.056047123 0.039954886
-0.088906355 -0.013354473 0.06886698 -0.057538994 -0.00033798497 -0.10396805 -0.084467225 -0.057608604
-0.046112634 -0.030428015 0.013150021 0.061975684 0.033204097 -0.04709453 0.023310402 -0.07687834
-0.00077151525 -0.042540215 -0.010761573 -0.0444114 -0.003053415 -0.0008188747 -0.023889301 -0.0040005795
0.0031818715 -0.15426965 0.060599543 -0.023438167 -0.0062849554 -0.009776243 -0.026531303 0.030986708
-0.11308016 -0.061318036 0.019669365 0.03862968 -0.0019514819 -0.0050517437 -0.009408687 -0.03567049
-0.105387546 -0.03983852 0.0086499145 0.024138935 0.041569773 -0.058991645 -0.0015987343 -0.020198183
-0.045888033 0.03230698 0.050406683 0.006447532 0.06868573 -0.08848721 -0.060230043 0.0038172398
0.07186404 0.072968826 -0.02062954 -0.05109986 -0.0014207745 -0.022578672 -0.0124173695 0.021620918
-0.01874366 -0.04783916 -0.029835206 -0.045980554 -0.036674038 0.030058112 -0.019837841 0.051252846
0.014706424 0.0077399807 -0.046627108 -0.08387272 -0.0384703 -0.1284446 -0.037761796 0.041784126
-0.028585387 -0.036870524 -0.036138423 -0.0022464364 0.029494839 -0.068884954 -0.03436596 0.01318564
-0.0060442314 0.02474767 -0.02581746 -0.014441827 -0.010325155 -0.06376149 -0.0074434914 -0.10768425
0.025541471 -0.0122114355 0.008763735 0.004521678 0.01901113 -0.019603306 -0.08963189 -0.056971665
-0.07925257 -0.025615739 -0.031527042 0.0515339 -0.0061987243 -0.03900093 -0.0018369255 0.05517077
-0.020058535 -0.059434857 0.069278836 0.069108054 -0.072228774 -0.004192276 -0.012961472 -0.010658046
-0.07041391 -0.17321812 -0.046061847 -0.024244694 0.046320893 0.042890843 0.013462875 -0.05456587
-0.02992692 -0.07329383 -0.045013793 -0.018729478 0.021382324 -0.0042713108 -0.047863364 0.04823193
-0.0002077069 -0.01631498 -0.011368222 -0.0029235843 -0.07765735 -0.05082116 0.03858052 -0.032136913
0.011972431 0.015389607 -0.038524445 -0.014030074 -0.076519 -0.004527261 -0.022845645 -0.04246992
0.044973593 -0.0066117793 -0.0029407963 -0.0502683 -0.06949554 -0.023040101 -0.0325921 0.06480861
-0.013417712 0.06800214 0.0307135 -0.03870205 -0.067662306 -0.027953027 0.013116079 -0.07682743
-0.053821146 -0.05783496 -0.010585975 -0.029443163 -8.9847774e-05 -0.0029824832 0.018286524 -0.02234786
-0.05299046 -0.04766949 -0.023098297 -0.11023673 -0.040927187 -0.0017324688 0.06690081 0.034652103
0.04222877 -0.0061334847 -0.116269425 -0.15126763 0.05951698 -0.02551524 -0.030970627 -0.04342949
-0.023817835 0.03290412 0.049136322 -0.17837374 -0.09296297 -0.07563678 -0.083930716 -0.0068907286
0.042838905 0.043154523 0.013897381 0.013704121 0.022675857 -0.0066458657 -0.019370351 -0.0013286513
00000000: efa6 d33c b107 6e3d a258 553d 1057 00bd
00000010: 34a2 53bc 9126 b43b 096e 67bd a315 96bd
00000020: 2ed0 02bd 0679 2b3d 4a51 513d 559f 563d
00000030: bac4 cebc 3a05 dbbb 3c88 11bd a6ab a4bd
00000040: f8f7 bcbd 4d59 c2bd cf79 153d eb2d 833c
00000050: f0a7 2c3c 3962 86bc aca5 3abd bc39 c5b9
00000060: 5b3a 3ebc d921 923c afff 2a3d 4ce9 1d3c
00000070: 9023 803d 3804 aa3c 2d1c 4bbd 5eca 72bc
00000080: 792c 603d 62f8 9fbd 7800 b3bd 1c72 1dbd
00000090: 1a4f c83c 56c3 4b3d 8c6d afbd a5c1 6fbc
000000a0: aef5 d4bc 1e0f f3bc 9114 563d 269b c5bd
000000b0: 3a2c d63c fb9c 95bc ab91 65bd bca7 233d
000000c0: 8914 b6bd b8cc 5abc 220a 8d3d 02ae 6bbd
000000d0: 9333 b1b9 33ed d4bd 27fd acbd 00f7 6bbd
000000e0: 9ae0 3cbd 2c44 f9bc 3073 573c 37da 7d3d
000000f0: 0501 083d 32e6 40bd 75f5 be3c 6472 9dbd
00000100: 833f 4aba a63e 2ebd 4f51 30bc bae8 35bd
00000110: ce1b 48bb c0a9 56ba 7fb3 c3bc 4b17 83bb
00000120: f286 503b ddf8 1dbe 3a37 783d 6601 c0bc
00000130: 07f2 cdbb 892c 20bc 2d58 d9bc d6d7 fd3c
00000140: 9296 e7bd 9f28 7bbd a621 a13c 283a 1e3d
00000150: dec8 ffba 1989 a5bb e526 1abc 381b 12bd
00000160: 6dd5 d7bd b72d 23bd 5fb8 0d3c 04bf c53c
00000170: 1145 2a3d 39a1 71bd 9f8c d1ba a976 a5bc
00000180: 17f5 3bbd 5354 043d 3d77 4e3d d245 d33b
00000190: 1bab 8c3d c838 b5bd c7b3 76bd a82a 7a3b
000001a0: 742d 933d ae70 953d 48ff a8bc 164e 51bd
000001b0: 4839 baba e8f6 b8bc 3972 4bbc 5a1e b13c
000001c0: 4e8c 99bc fff2 43bd f668 f4bc 1b56 3cbd
000001d0: 8437 16bd 6e3c f63c f882 a2bc 81ee 513d
000001e0: 37f3 703c aa9f fd3b 11fc 3ebd 76c5 abbd
000001f0: 0993 1dbd fb86 03be 1dac 1abd d525 2b3d
00000200: e72b eabc 8c05 17bd e205 14bd f338 13bb
00000210: 299f f13c 8e13 8dbd 52c3 0cbd 9508 583c
00000220: b00e c6bb a0bb ca3c 237f d3bc 6a9d 6cbc
00000230: d72a 29bc 6295 82bd 88e8 f3bb 8f89 dcbd
00000240: 593c d13c 7912 48bc c595 0f3c 962a 943b
00000250: 3bbd 9b3c 1d97 a0bc ed90 b7bd 1f5b 69bd
00000260: 2c4f a2bd 19d8 d1bc 8022 01bd 3615 533d
00000270: ab1e cbbb 70bf 1fbd fec4 f0ba bffa 613d
00000280: cc51 a4bc f771 73bd 10e2 8d3d 8688 8d3d
00000290: aeec 93bd 5c5f 89bb 5b5c 54bc 169f 2ebc
000002a0: 2b35 90bd 1760 31be 59ab 3cbd cf9c c6bc
000002b0: faba 3d3d 4fae 2f3d 6493 5c3c 7680 5fbd
000002c0: 4d29 f5bc 131b 96bd 6260 38bd 906e 99bc
000002d0: fc29 af3c 5af6 8bbb 600c 44bd d88e 453d
000002e0: e5cb 59b9 fea6 85bc c741 3abc 9b99 3fbb
000002f0: d10a 9fbd d929 50bd 9b06 1e3d ffa1 03bd
00000300: 0428 443c b124 7c3c cfcb 1dbd 65de 65bc
00000310: feb5 9cbd 6b59 94bb ca26 bbbc f0f4 2dbd
00000320: 3b36 383d a0a7 d8bb 60ba 40bb 22e6 4dbd
00000330: ad53 8ebd 98be bcbc 4b7f 05bd 60ba 843d
00000340: f7d5 5bbc b544 8b3d e19a fb3c 0a86 1ebd
00000350: 8992 8abd bffd e4bc d3e4 563c b357 9dbd
00000360: 9073 5cbd 5ae4 6cbd cc70 2dbc ca32 f1bc
00000370: a86c bcb8 c475 43bb 9fcd 953c dc12 b7bc
00000380: 860c 59bd 1541 43bd a438 bdbc cbc3 e1bd
00000390: 44a3 27bd 0214 e3ba 4b03 893d 5def 0d3d
000003a0: 13f8 2c3d 66fb c8bb aa1e eebd e7e5 1abe
000003b0: 14c8 733d 5605 d1bc 1db6 fdbc 1fe3 31bd
000003c0: 9f1d c3bc 78c6 063d 2b43 493d 9ba7 36be
000003d0: 5f63 bebd 75e7 9abd dee3 abbd 9fcb e1bb
000003e0: d977 2f3d ccc2 303d d7b1 633c 4087 603c
000003f0: b8c2 b93c 90c5 d9bb 92ae 9ebc 2426 aeba

decoder.decoder.0.bias f4 [32]
0.010731405 0.026305446 0.042315066 0.36813122 0.00052866124 -0.07413248 0.3550274 0.74850047
0.10884179 0.17840414 0.018753229 -0.059626196 0.6636208 -1.1844714 -0.047957283 -0.031102225
-0.10995306 0.019114189 -0.0058392426 -0.09067855 -0.24906488 -0.3790991 -0.0038340478 0.04076956
1.7480191 0.60224295 0.6259266 0.40731785 0.11852881 -0.05874601 0.09893147 -0.032861255
00000000: c6d2 2f3c 857e d73c 9052 2d3d b27b bc3e
00000010: db95 0a3a c5d2 97bd 27c6 b53e ba9d 3f3f
00000020: 72e8 de3d 93af 363e 5fa0 993c 993a 74bd
00000030: 0ee3 293f c29c 97bf db6e 44bd 18ca febc
00000040: 122f e1bd 5c95 9c3c 1e57 bfbb adb5 b9bd
00000050: dd0a 7fbe 4719 c2be a644 7bbb fbfd 263d
00000060: 17bf df3f 982c 1a3f ba3c 203f f78b d03e
00000070: 3cbf f23d a89f 70bd 959c ca3d 8699 06bd

decoder.decoder.2.weight f4 [32, 32, 3, 3]
0.021463154 -0.0066375597 -0.008841596 -0.004470398 -0.009067444 -0.014941036 -0.067115605 0.042775594
-0.051527243 0.03509177 -0.043939922 -0.06780747 0.023682797 0.02227121 0.008514721 0.030090857
-0.02813909 -0.014674302 0.035459083 0.010129747 0.06786892 -0.0013660479 0.0038066502 0.044820942
-0.045529198 -0.06839182 -0.020863652 0.03031671 -0.07549483 -0.011808952 -0.031358037 -0.05408315
-0.04510805 0.044213954 0.09124144 -0.03919295 -0.06368269 0.021263173 -0.022470096 -0.029164273
0.006946856 -0.012728635 -0.05391522 -0.2943071 -0.01713951 0.095475405 -0.085762195 -0.016420472
0.13219771 0.0011123648 0.056245647 -0.030522862 0.09416793 0.18587428 -0.012115504 0.09699151
-0.02000565 -0.042593636 -0.0036684975 -0.010214678 -0.029279958 -0.3985633 -0.008641725 -0.067188956
0.09533478 0.026815612 -0.0024228808 0.018239599 0.05452998 -0.018313259 -0.02565386 -0.018050665
-0.015464667 0.14315882 -0.002482497 -0.2130709 -0.021259008 0.076966636 -0.05447956 -0.28387234
-0.017963756 -0.014017206 -0.07503422 0.014594761 0.02907284 0.018970039 -0.0070876256 -0.045296308
0.0025738282 0.049890485 -0.059212442 -0.054042056 -0.06552655 0.040137913 0.01742108 -0.06450032
0.024720822 -0.05782453 0.03692426 0.042766023 -0.08631904 -0.032088295 0.035109427 0.0046733017
-0.0021008668 -0.022870364 -0.07154463 -0.053371217 0.02994005 -0.0038230952 -0.01114726 -0.048600554
-0.028051862 0.023435712 -0.04747175 0.029501572 0.01557026 -0.03149916 0.03149978 -0.038935915
-0.06001209 -0.0065017883 0.04037663 0.03277617 -0.140151 0.015151767 -0.06409952 -0.0016794585
0.014818393 -0.048174478 -0.019284215 -0.009315469 -0.06214463 -0.011321209 0.026017047 -0.030828178
-0.0062671932 0.028203258 0.001695949 -0.016786575 -0.010048626 0.056364454 -0.005872969 0.05700346
-0.04531458 -0.0568725 -0.055680517 -0.070040084 -0.00012858844 0.04367521 0.027249258 -0.023171803
0.0460525 -0.05445297 -0.014691936 0.032316342 -0.008661114 -0.0028108698 -0.037300143 -0.05708875
0.0076247533 -0.023200346 -0.046133973 -0.025823843 -0.08248557 -0.036153797 -0.027478404 -0.07014919
-0.0066302074 -0.10364401 -0.06879248 -0.33535376 -0.0333829 -0.106632225 0.042445004 -0.004600493
-0.012614849 -0.0070652645 0.089026906 -0.031024812 -0.039355125 -0.07584092 -0.093791366 -0.43689942
-0.05654259 0.042763367 -0.022533547 -0.010548249 0.0007661248 -0.003367361 -0.0065202634 -0.063426375
-0.002612741 -0.007822956 0.0044532204 -0.057589628 0.005698866 -0.045483407 -0.06308415 -0.037115823
0.06897183 0.027323505 0.021552332 0.028995598 0.17419666 -0.071 -0.15514377 0.04582372
-0.022742298 0.06070158 -0.011734608 -0.05306589 -0.043225307 0.09293276 0.0107620815 0.036661364
0.02025025 -0.085465126 -0.042072985 0.009810253 0.012001391 0.043961223 0.00796859 -0.03269743
-0.047727007 -0.039791908 -0.01885724 -0.057767864 -0.013062386 0.045425657 -0.0426398 0.029734338
-0.06805673 -0.007506431 0.043818776 -0.005548552 0.041902266 -0.047591873 0.001324992 0.03125548
0.010156266 0.04423324 0.017093306 -0.018889248 -0.02321053 0.02722554 0.035166737 -0.0421865
0.042957347 -0.06316008 0.019107776 -0.07286777 0.002303287 0.0013307048 0.03127385 0.023297392
00000000: 7fd3 af3c e37f d9bb 57dc 10bc 6b7c 92bb
00000010: 9e8f 14bc 3fcb 74bc e873 89bd 7635 2f3d
00000020: 3b0e 53bd 63bc 0f3d 59fa 33bd a5de 8abd
00000030: 6d02 c23c 1d72 b63c 5481 0b3c 1a81 f63c
00000040: f383 e6bc 7c6c 70bc 8b3d 113d 3df7 253c
00000050: dcfe 8a3d f60c b3ba fe78 793b 2a96 373d
00000060: d37c 3abd 0311 8cbd 40ea aabc c05a f83c
00000070: 099d 9abd 567a 41bc 4971 00bd 4b86 5dbd
00000080: 38c3 38bd b119 353d cbdc ba3d c988 20bd
00000090: 126c 82bd 1b30 ae3c 3513 b8bc eae9 eebc
000000a0: 74a2 e33b c48b 50bc 35d6 5cbd 6caf 96be
000000b0: 2868 8cbc 9c88 c33d 17a4 afbd 3a84 86bc
000000c0: d65e 073e c5cc 913a d661 663d 150b fabc
000000d0: 1edb c03d d455 3e3e 1b80 46bc 7ca3 c63d
000000e0: e4e2 a3bc aa76 2ebd 2d6b 70bb 775b 27bc
000000f0: 86dc efbc 7d10 ccbe 0696 0dbc 5d9a 89bd
00000100: e23e c33d 6aac db3c 32c9 1ebb 366b 953c
00000110: d45a 5f3d b005 96bc 0b28 d2bc fdde 93bc
00000120: 845f 7dbc 3a98 123e 63b1 22bb 422f 5abe
00000130: 5f27 aebc afa0 9d3d f625 5fbd b757 91be
00000140: ba28 93bc 6ca8 65bc 8bab 99bd dd1e 6f3c
00000150: 2a2a ee3c 0e67 9b3c 503f e8bb 9f88 39bd
00000160: acad 283b f759 4c3d bf88 72bd 345b 5dbd
00000170: c932 86bd a767 243d a7b6 8e3c be18 84bd
00000180: 5283 ca3c 6ad9 6cbd e53d 173d 6d2b 2f3d
00000190: 09c8 b0bd 046f 03bd e7ce 0f3d 7f22 993b
000001a0: b2ae 09bb a15a bbbc fe85 92bd c79b 5abd
000001b0: d644 f53c e58c 7abb ffa2 36bc 6011 47bd
000001c0: 05cd e5bc 40fc bf3c bd71 42bd 48ad f13c
000001d0: 671a 7f3c 4305 01bd ea05 013d 447b 1fbd
000001e0: 3dcf 75bd f40c d5bb f761 253d 4e40 063d
000001f0: be83 0fbe 1e3f 783c 9c46 83bd 4721 dcba
00000200: d8c8 723c 9a52 45bd eef9 9dbc e99f 18bc
00000210: 5e8b 7ebd 987c 39bc b421 d53c 608b fcbc
00000220: 075d cdbb 850a e73c 9b4a de3a 0084 89bc
00000230: fea2 24bc 6ade 663d 0972 c0bb 767c 693d
00000240: c89b 39bd 23f3 68bd 4111 64bd 2d71 8fbd
00000250: b2d5 06b9 c7e4 323d d639 df3c cbd2 bdbc
00000260: 8ca1 3c3d 140a 5fbd 72b6 70bc 245e 043d
00000270: 58e7 0dbc 9236 38bb 09c8 18bd e5d5 69bd
00000280: 11d9 f93b a70e bebc faf6 3cbd 868c d3bc
00000290: 32ee a8bd 0116 14bd 641a e1bc 61aa 8fbd
000002a0: 3642 d9bb 5043 d4bd 12e3 8cbd 7db3 abbe
000002b0: 82bc 08bd ff61 dabd d0da 2d3d bbbf 96bb
000002c0: 83ae 4ebc bc83 e7bb bd53 b63d bf27 febc
000002d0: d732 21bd 7c52 9bbd b015 c0bd 48b1 dfbe
000002e0: 3499 67bd a428 2f3d 4698 b8bc 90d2 2cbc
000002f0: c4d5 483a f1ae 5cbb efa7 d5bb b0e5 81bd
00000300: 853a 2bbb db2b 00bc 52ec 913b 1ae3 6bbd
00000310: 8ebd ba3b cf4c 3abd 4332 81bd c306 18bd
00000320: 1a41 8d3d 8bd5 df3c 848e b03c 2d88 ed3c
00000330: 9c60 323e 7368 91bd 02de 1ebe a7b1 3b3d
00000340: 0e4e babc 38a2 783d 8342 40bc 9e5b 59bd
00000350: 050d 31bd 8853 be3d 7153 303c 3a2a 163d
00000360: dae3 a53c 5708 afbd b954 2cbd 2fbb 203c
00000370: 7ba1 443c af10 343d b08e 023c beed 05bd
00000380: 657d 43bd d7fc 22bd 807a 9abc ff9d 6cbd
00000390: 9e03 56bc 4110 3a3d 12a7 2ebd 6d95 f33c
000003a0: 5461 8bbd 82f8 f5bb 517b 333d a1d0 b5bb
000003b0: b6a1 2b3d b2ef 42bd 5bab ad3a bf05 003d
000003c0: 7866 263c ea2d 353d 4307 8c3c a0bd 9abc
000003d0: 0224 bebc 1808 df3c ff0a 103d c0cb 2cbd
000003e0: 0bf4 2f3d 125a 81bd e987 9c3c b33b 95bd
000003f0: bef2 163b 0b6b ae3a 0219 003d 2cda be3c

decoder.decoder.2.bias f4 [32]
-0.30913824 0.0404234 0.024919577 0.14322366 0.03243132 -0.052365404 0.5325271 0.24954745
-0.030031605 -0.03301469 0.07436 -0.2391616 0.15493777 0.106733225 -0.02750147 0.09136802
-0.348689 0.275334 -0.023023145 0.04511899 -0.029575977 -0.5976105 0.3368275 0.024681453
0.031097906 -0.8959274 -0.001257205 0.020826895 1.3588353 -0.09972685 0.30751887 0.12249056
00000000: 5e47 9ebe 0293 253d 2424 cc3c 39a9 123e
00000010: b4d6 043d 1b7d 56bd b253 083f 5e89 7f3e
00000020: d704 f6bc 693a 07bd 0e4a 983d c7e6 74be
00000030: 02a8 1e3e f396 da3d c34a e1bc 281f bb3d
00000040: 5d87 b2be 94f8 8c3e 099b bcbc b1ce 383d
00000050: 5249 f2bc 00fd 18bf a774 ac3e c230 ca3c
00000060: 09c1 fe3c 805b 65bf cdc8 a4ba 2a9d aa3c
00000070: 51ee ad3f 973d ccbd 1d73 9d3e 55dc fa3d

decoder.decoder.4.weight f4 [32, 32, 3, 3]
-0.10642528 0.03565786 -0.12425893 0.23286985 -0.19922149 0.37039626 -0.15717827 0.03308153
-0.0052061006 -0.19560266 0.01733325 -0.1601298 -0.19798915 0.14390755 0.09471139 -0.07382215
-0.022122845 -0.017993877 -0.018506896 -0.060049694 -0.023474455 0.077202626 -0.9132836 -0.3225609
0.059755675 0.047389675 0.029959206 -0.02363068 0.38812348 0.0033452497 -0.6026356 -0.09350013
-0.014478208 -0.0038861313 0.054224573 -0.04547151 -0.08533509 0.31369781 0.038162813 -0.07192291
0.29820213 0.0055238893 0.04086327 0.053563144 -0.008439582 -0.4285952 -0.0060956497 -0.08269168
0.06013731 0.05654473 0.14567861 0.038131874 -0.025798129 -0.18583642 -0.030352019 -0.050528206
-0.07847474 0.19046007 -0.0068266094 -0.028573094 0.00083619053 0.051704597 -0.011213595 -0.0016456621
0.080992 0.071803816 -0.024604276 0.029647814 -0.053938795 -0.043583237 0.05490633 0.042713482
-0.12692672 0.07974917 -0.048447188 0.01790164 -0.07417711 -0.052311342 -0.02815499 0.066641964
-0.019060574 -0.10182193 0.084390976 -0.0009704031 0.008124593 0.046337582 0.013319517 -0.14082909
-0.028159337 -0.38955295 -0.19183305 -0.05179829 -0.0756106 0.01766538 -0.052896652 -0.054958653
0.004689905 -0.011639187 -0.17356965 0.2837147 -0.21932949 -0.14639927 -0.041333143 0.19882919
-0.0030799846 -0.12485656 -0.029509796 -0.030435363 -0.03379507 -0.15744366 -0.10631814 0.22364067
-0.009575659 0.19704588 -0.123450115 0.045232482 -0.17218561 0.23961525 0.027437516 0.083081365
-0.018331446 0.24426475 0.016881866 0.03797042 -0.07894695 0.39790612 -0.041792717 -0.0037352522
-0.03515025 -0.05506922 -0.029581359 -0.069061875 0.04143567 0.0005825642 0.019113638 -0.039231144
0.019294647 -0.17704971 0.013612281 0.07935951 -0.19067962 0.11129798 -0.19628403 -0.13023616
0.0750416 0.03917998 -0.054705784 0.0013319864 -0.30862474 -0.0037090029 -0.044469453 -0.066919364
-0.05042904 0.051555365 -0.034011684 -0.20608404 -0.022685694 0.17931311 -0.018336527 -0.04348913
-0.69380665 -0.043470275 0.077809334 0.02752224 0.040012367 0.09324783 0.10543139 -0.033361465
0.0073735523 0.06665959 0.0022675022 -0.34336358 -0.12532671 -0.060523827 0.010719777 -0.06683355
-0.44453079 -0.12924553 -0.011303381 -0.039045837 0.0522837 0.09728719 0.04047847 0.03262939
0.06650028 -0.0411199 -0.0028323806 -0.022359977 -0.08456681 -0.10364275 -0.17168665 -0.0015325653
-0.043742724 -0.07474119 -0.0065614744 -0.08251158 -0.05667536 -0.03907943 0.06172815 0.034114502
0.06875074 -0.082571894 0.11905525 0.0016986247 -0.02915806 -0.11698546 -0.1129728 -0.07592047
-0.053413633 -0.0580238 0.26188558 -0.12977009 0.25017214 -0.18780017 0.22971801 -0.008969439
-0.02593936 -0.102752075 -0.0363493 -0.07758692 -0.07743116 0.06460104 0.0078120367 -0.07665331
0.023503637 -0.014874127 -0.0484228 -0.01735524 0.0007454121 -0.2717371 -0.0718486 0.40427557
0.07703723 -0.13858154 -0.10116869 -0.5006801 -0.14088956 0.075254105 0.054219313 -0.20563182
0.030785259 -0.15048555 0.098450996 -0.01300847 -0.1839867 0.011133779 -0.33577406 0.014105936
-0.15759017 0.098459266 -0.11070414 -0.19089925 -0.0056290785 0.057466768 0.022463068 -0.06546502
00000000: 7ff5 d9bd fa0d 123d 777b febd 6f75 6e3e
00000010: b800 4cbe 94a4 bd3e 57f3 20be 8080 073d
00000020: f097 aabb 104c 48be 76fe 8d3c 11f9 23be
00000030: abbd 4abe 805c 133e 0cf8 c13d 1130 97bd
00000040: f83a b5bc e567 93bc c69b 97bc abf6 75bd
00000050: 804d c0bc 691c 9e3d f4cc 69bf b426 a5be
00000060: 5ec2 743d ad1b 423d 026d f53c 2195 c1bc
00000070: 1fb8 c63e fa3b 5b3b 5446 1abf ff7c bfbd
00000080: 0136 6dbc 77ae 7ebb 961a 5e3d 5640 3abd
00000090: 2ac4 aebd 009d a03e 9c50 1c3d 524c 93bd
000000a0: f3ad 983e be01 b53b 3f60 273d 0765 5b3d
000000b0: 2c46 0abc d470 dbbe 04be c7bb 415a a9bd
000000c0: 8a52 763d 729b 673d c62c 153e 2b30 1c3d
000000d0: 9956 d3bc e74b 3ebe cca4 f8bc aaf6 4ebd
000000e0: 5db7 a0bd f707 433e c0b1 dfbb 1f12 eabc
000000f0: cc33 5b3a 33c8 533d 3ab9 37bc 42b3 d7ba
00000100: 22df a53d e10d 933d e88e c9bc f9df f23c
00000110: edee 5cbd 5684 32bd 76e5 603d 55f4 2e3d
00000120: 14f9 01be 8853 a33d 8f70 46bd 76a6 923c
00000130: 2bea 97bd 6b44 56bd 4ba5 e6bc 957b 883d
00000140: ec24 9cbc 0488 d0bd 2dd5 ac3d a662 7eba
00000150: 031d 053c 7acc 3d3d 1a3a 5a3c 8035 10be
00000160: 69ae e6bc 7c73 c7be e26f 44be 722a 54bd
00000170: bbd9 9abd fdb6 903c 29aa 58bd 531c 61bd
00000180: c6ad 993b 4ab2 3ebc 3ebc 31be 0e43 913e
00000190: e997 60be b1e9 15be f14c 29bd e199 4b3e
000001a0: 91d9 49bb ccb4 ffbd 87be f1bc 9553 f9bc
000001b0: b36c 0abd e938 21be 53bd d9bd 0f02 653e
000001c0: 3ae3 1cbc 65c6 493e 6ad3 fcbd b245 393d
000001d0: 6d51 30be b35d 753e a4c4 e03c 9026 aa3d
000001e0: d42b 96bc 8a20 7a3e d74b 8a3c df86 1b3d
000001f0: f0ae a1bd 5aba cb3e d72e 2bbd 22cb 74bb
00000200: b5f9 0fbd 4390 61bd 9b54 f2bc 5070 8dbd
00000210: 73b8 293d 39b7 183a 3494 9c3c d6b0 20bd
00000220: cf0f 9e3c 854c 35be 0b06 5f3c 3d87 a23d
00000230: 8541 43be 32f0 e33d aefe 48be a15c 05be
00000240: 69af 993d 307b 203d 2c13 60bd 0c96 ae3a
00000250: 1004 9ebe be12 73bb 9a25 36bd 050d 89bd
00000260: ae8e 4ebd b82b 533d d64f 0bbd b207 53be
00000270: 59d7 b9bc db9d 373e 7c36 96bc a821 32bd
00000280: 509d 31bf e30d 32bd 805a 9f3d 5276 e13c
00000290: 02e4 233d b8f8 be3d 6aec d73d 08a6 08bd
000002a0: d79d f13b d384 883d 609a 143b 5acd afbe
000002b0: a555 00be d5e7 77bd 01a2 2f3c 07e0 88bd
000002c0: 8a99 e3be f158 04be d131 39bc 87ee 1fbd
000002d0: 6f27 563d 823e c73d c1cc 253d 65a6 053d
000002e0: 4c31 883d 576d 28bd 769f 39bb 452c b7bc
000002f0: 5d31 adbd a642 d4bd a0ce 2fbe 5ce0 c8ba
00000300: 922b 33bd e911 99bd a301 d7bb d5fb a8bd
00000310: 6c24 68bd c111 20bd a8d6 7c3d a6bb 0b3d
00000320: 30cd 8c3d 741b a9bd 3dd3 f33d 63a4 de3a
00000330: e2dc eebc 1396 efbd 495e e7bd 317c 9bbd
00000340: 41c8 5abd 5daa 6dbd de15 863e 73e2 04be
00000350: 9016 803e b04e 40be 333b 6b3e 8ef4 12bc
00000360: c87e d4bc ae6f d2bd 01e3 14bd e4e5 9ebd
00000370: 3a94 9ebd 8d4d 843d 1dfc ff3b 69fc 9cbd
00000380: b38a c03c 9cb2 73bc fc56 46bd 942c 8ebc
00000390: c267 433a 2021 8bbe 5c25 93bd 35fd ce3e
000003a0: b2c5 9d3d 52e8 0dbe 8831 cfbd 922c 00bf
000003b0: 5a45 10be d31e 9a3d 1215 5e3d 2691 52be
000003c0: 5e31 fc3c e218 1abe ada0 c93d 7a21 55bc
000003d0: 0267 3cbe 746a 363c 94ea abbe 951c 673c
000003e0: 515f 21be 03a5 c93d dab8 e2bd 187b 43be
000003f0: 2274 b8bb 4662 6b3d 7804 b83c 8612 86bd

decoder.decoder.4.bias f4 [32]
0.11066897 0.031473532 0.0360845 0.0073940414 -0.022655405 -0.21175197 0.19451007 0.17546922
0.06644334 0.074186146 0.05071026 0.20418897 0.091895126 0.035733897 -0.07758235 0.049255088
-0.02406826 -0.13605769 0.1209252 0.13530137 -0.10169958 0.28672668 0.10732471 0.11245521
0.061263673 0.20876169 0.03107127 -0.053212605 0.0832297 -0.016214697 0.05904174 0.091729924
00000000: 6aa6 e23d 64ea 003d 57cd 133d b749 f23b
00000010: d497 b9bc 82d5 58be a62d 473e 34ae 333e
00000020: 7213 883d e8ee 973d 90b5 4f3d ea16 513e
00000030: 8333 bc3d b55d 123d 7fe3 9ebd b4bf 493d
00000040: cd2a c5bc b552 0bbe a2a7 f73d 718c 0a3e
00000050: df47 d0bd d7cd 923e 0fcd db3d eb4e e63d
00000060: 9eef 7a3d a0c5 553e 2d89 fe3c 76f5 59bd
00000070: 5574 aa3d afd4 84bc c0d5 713d e6dc bb3d
